module attributes {llvm.data_layout = "e-m:e-p270:32:32-p271:32:32-p272:64:64-i64:64-f80:128-n8:16:32:64-S128", llvm.target_triple = "x86_64-unknown-linux-gnu"} {
  func @main_graph(%arg0: tensor<?x3x32x32xf32>) -> tensor<?x10x1x1xf32> attributes {input_names = ["X"], output_names = ["Y"]} {
    %0 = "onnx.Constant"() {value = dense<1.000000e+00> : tensor<32x3x3x3xf32>} : () -> tensor<32x3x3x3xf32>
    %1 = "onnx.Constant"() {value = dense<1.000000e+00> : tensor<32xf32>} : () -> tensor<32xf32>
    %2 = "onnx.Conv"(%arg0, %0, %1) {kernel_shape = [3, 3], onnx_node_name = "Conv1", pads = [1, 1, 1, 1]} : (tensor<?x3x32x32xf32>, tensor<32x3x3x3xf32>, tensor<32xf32>) -> tensor<*xf32>
    %3 = "onnx.Constant"() {value = dense<[… > : tensor<32xf32>} : () -> tensor<32xf32>
    %4 = "onnx.Constant"() {value = dense<[… > : tensor<32xf32>} : () -> tensor<32xf32>
    %5 = "onnx.Constant"() {value = dense<[… > : tensor<32xf32>} : () -> tensor<32xf32>
    %6 = "onnx.Constant"() {value = dense<[… > : tensor<32xf32>} : () -> tensor<32xf32>
    %7 = "onnx.BatchNormalizationInferenceMode"(%2, %3, %4, %5, %6) {onnx_node_name = "BN1"} : (tensor<*xf32>, tensor<32xf32>, tensor<32xf32>, tensor<32xf32>, tensor<32xf32>) -> tensor<*xf32>
    %8 = "onnx.Relu"(%7) {onnx_node_name = "ReLU1"} : (tensor<*xf32>) -> tensor<*xf32>
    %9 = "onnx.GlobalAveragePool"(%8) {onnx_node_name = "Avg_Pool1"} : (tensor<*xf32>) -> tensor<*xf32>
    %10 = "onnx.Constant"() {value = dense<1.000000e+00> : tensor<10x32x1x1xf32>} : () -> tensor<10x32x1x1xf32>
    %11 = "onnx.Constant"() {value = dense<1.000000e+00> : tensor<10xf32>} : () -> tensor<10xf32>
    %12 = "onnx.Conv"(%9, %10, %11) {kernel_shape = [1, 1], onnx_node_name = "Conv2", pads = [0, 0, 0, 0]} : (tensor<*xf32>, tensor<10x32x1x1xf32>, tensor<10xf32>) -> tensor<?x10x1x1xf32>
    return %12 : tensor<?x10x1x1xf32>
  }
  "onnx.EntryPoint"() {func = @main_graph} : () -> ()
}
