module attributes {llvm.data_layout = "e-m:e-p270:32:32-p271:32:32-p272:64:64-i64:64-f80:128-n8:16:32:64-S128", llvm.target_triple = "x86_64-unknown-linux-gnu"} {
  func @main_graph(%arg0: tensor<1x3x224x224xf32>) -> tensor<1x1000xf32> attributes {input_names = ["input"], output_names = ["191"]} {
    %0 = "onnx.Constant"() {value = opaque<"elided_large_const", "0xDEADBEEF"> : tensor<64x3x7x7xf32>} : () -> tensor<64x3x7x7xf32>
    %1 = "onnx.Constant"() {value = dense<[… > : tensor<64xf32>} : () -> tensor<64xf32>
    %2 = "onnx.Conv"(%arg0, %0, %1) {dilations = [1, 1], group = 1 : si64, kernel_shape = [7, 7], onnx_node_name = "Conv_0", pads = [3, 3, 3, 3], strides = [2, 2]} : (tensor<1x3x224x224xf32>, tensor<64x3x7x7xf32>, tensor<64xf32>) -> tensor<*xf32>
    %3 = "onnx.Relu"(%2) {onnx_node_name = "Relu_1"} : (tensor<*xf32>) -> tensor<*xf32>
    %4 = "onnx.MaxPoolSingleOut"(%3) {ceil_mode = 0 : si64, kernel_shape = [3, 3], onnx_node_name = "MaxPool_2", pads = [1, 1, 1, 1], strides = [2, 2]} : (tensor<*xf32>) -> tensor<*xf32>
    %5 = "onnx.Constant"() {value = opaque<"elided_large_const", "0xDEADBEEF"> : tensor<64x64x3x3xf32>} : () -> tensor<64x64x3x3xf32>
    %6 = "onnx.Constant"() {value = dense<[… > : tensor<64xf32>} : () -> tensor<64xf32>
    %7 = "onnx.Conv"(%4, %5, %6) {dilations = [1, 1], group = 1 : si64, kernel_shape = [3, 3], onnx_node_name = "Conv_3", pads = [1, 1, 1, 1], strides = [1, 1]} : (tensor<*xf32>, tensor<64x64x3x3xf32>, tensor<64xf32>) -> tensor<*xf32>
    %8 = "onnx.Relu"(%7) {onnx_node_name = "Relu_4"} : (tensor<*xf32>) -> tensor<*xf32>
    %9 = "onnx.Constant"() {value = opaque<"elided_large_const", "0xDEADBEEF"> : tensor<64x64x3x3xf32>} : () -> tensor<64x64x3x3xf32>
    %10 = "onnx.Constant"() {value = dense<[… > : tensor<64xf32>} : () -> tensor<64xf32>
    %11 = "onnx.Conv"(%8, %9, %10) {dilations = [1, 1], group = 1 : si64, kernel_shape = [3, 3], onnx_node_name = "Conv_5", pads = [1, 1, 1, 1], strides = [1, 1]} : (tensor<*xf32>, tensor<64x64x3x3xf32>, tensor<64xf32>) -> tensor<*xf32>
    %12 = "onnx.Add"(%11, %4) {onnx_node_name = "Add_6"} : (tensor<*xf32>, tensor<*xf32>) -> tensor<*xf32>
    %13 = "onnx.Relu"(%12) {onnx_node_name = "Relu_7"} : (tensor<*xf32>) -> tensor<*xf32>
    %14 = "onnx.Constant"() {value = opaque<"elided_large_const", "0xDEADBEEF"> : tensor<64x64x3x3xf32>} : () -> tensor<64x64x3x3xf32>
    %15 = "onnx.Constant"() {value = dense<[… > : tensor<64xf32>} : () -> tensor<64xf32>
    %16 = "onnx.Conv"(%13, %14, %15) {dilations = [1, 1], group = 1 : si64, kernel_shape = [3, 3], onnx_node_name = "Conv_8", pads = [1, 1, 1, 1], strides = [1, 1]} : (tensor<*xf32>, tensor<64x64x3x3xf32>, tensor<64xf32>) -> tensor<*xf32>
    %17 = "onnx.Relu"(%16) {onnx_node_name = "Relu_9"} : (tensor<*xf32>) -> tensor<*xf32>
    %18 = "onnx.Constant"() {value = opaque<"elided_large_const", "0xDEADBEEF"> : tensor<64x64x3x3xf32>} : () -> tensor<64x64x3x3xf32>
    %19 = "onnx.Constant"() {value = dense<[… > : tensor<64xf32>} : () -> tensor<64xf32>
    %20 = "onnx.Conv"(%17, %18, %19) {dilations = [1, 1], group = 1 : si64, kernel_shape = [3, 3], onnx_node_name = "Conv_10", pads = [1, 1, 1, 1], strides = [1, 1]} : (tensor<*xf32>, tensor<64x64x3x3xf32>, tensor<64xf32>) -> tensor<*xf32>
    %21 = "onnx.Add"(%20, %13) {onnx_node_name = "Add_11"} : (tensor<*xf32>, tensor<*xf32>) -> tensor<*xf32>
    %22 = "onnx.Relu"(%21) {onnx_node_name = "Relu_12"} : (tensor<*xf32>) -> tensor<*xf32>
    %23 = "onnx.Constant"() {value = opaque<"elided_large_const", "0xDEADBEEF"> : tensor<128x64x3x3xf32>} : () -> tensor<128x64x3x3xf32>
    %24 = "onnx.Constant"() {value = opaque<"elided_large_const", "0xDEADBEEF"> : tensor<128xf32>} : () -> tensor<128xf32>
    %25 = "onnx.Conv"(%22, %23, %24) {dilations = [1, 1], group = 1 : si64, kernel_shape = [3, 3], onnx_node_name = "Conv_13", pads = [1, 1, 1, 1], strides = [2, 2]} : (tensor<*xf32>, tensor<128x64x3x3xf32>, tensor<128xf32>) -> tensor<*xf32>
    %26 = "onnx.Relu"(%25) {onnx_node_name = "Relu_14"} : (tensor<*xf32>) -> tensor<*xf32>
    %27 = "onnx.Constant"() {value = opaque<"elided_large_const", "0xDEADBEEF"> : tensor<128x128x3x3xf32>} : () -> tensor<128x128x3x3xf32>
    %28 = "onnx.Constant"() {value = opaque<"elided_large_const", "0xDEADBEEF"> : tensor<128xf32>} : () -> tensor<128xf32>
    %29 = "onnx.Conv"(%26, %27, %28) {dilations = [1, 1], group = 1 : si64, kernel_shape = [3, 3], onnx_node_name = "Conv_15", pads = [1, 1, 1, 1], strides = [1, 1]} : (tensor<*xf32>, tensor<128x128x3x3xf32>, tensor<128xf32>) -> tensor<*xf32>
    %30 = "onnx.Constant"() {value = opaque<"elided_large_const", "0xDEADBEEF"> : tensor<128x64x1x1xf32>} : () -> tensor<128x64x1x1xf32>
    %31 = "onnx.Constant"() {value = opaque<"elided_large_const", "0xDEADBEEF"> : tensor<128xf32>} : () -> tensor<128xf32>
    %32 = "onnx.Conv"(%22, %30, %31) {dilations = [1, 1], group = 1 : si64, kernel_shape = [1, 1], onnx_node_name = "Conv_16", pads = [0, 0, 0, 0], strides = [2, 2]} : (tensor<*xf32>, tensor<128x64x1x1xf32>, tensor<128xf32>) -> tensor<*xf32>
    %33 = "onnx.Add"(%29, %32) {onnx_node_name = "Add_17"} : (tensor<*xf32>, tensor<*xf32>) -> tensor<*xf32>
    %34 = "onnx.Relu"(%33) {onnx_node_name = "Relu_18"} : (tensor<*xf32>) -> tensor<*xf32>
    %35 = "onnx.Constant"() {value = opaque<"elided_large_const", "0xDEADBEEF"> : tensor<128x128x3x3xf32>} : () -> tensor<128x128x3x3xf32>
    %36 = "onnx.Constant"() {value = opaque<"elided_large_const", "0xDEADBEEF"> : tensor<128xf32>} : () -> tensor<128xf32>
    %37 = "onnx.Conv"(%34, %35, %36) {dilations = [1, 1], group = 1 : si64, kernel_shape = [3, 3], onnx_node_name = "Conv_19", pads = [1, 1, 1, 1], strides = [1, 1]} : (tensor<*xf32>, tensor<128x128x3x3xf32>, tensor<128xf32>) -> tensor<*xf32>
    %38 = "onnx.Relu"(%37) {onnx_node_name = "Relu_20"} : (tensor<*xf32>) -> tensor<*xf32>
    %39 = "onnx.Constant"() {value = opaque<"elided_large_const", "0xDEADBEEF"> : tensor<128x128x3x3xf32>} : () -> tensor<128x128x3x3xf32>
    %40 = "onnx.Constant"() {value = opaque<"elided_large_const", "0xDEADBEEF"> : tensor<128xf32>} : () -> tensor<128xf32>
    %41 = "onnx.Conv"(%38, %39, %40) {dilations = [1, 1], group = 1 : si64, kernel_shape = [3, 3], onnx_node_name = "Conv_21", pads = [1, 1, 1, 1], strides = [1, 1]} : (tensor<*xf32>, tensor<128x128x3x3xf32>, tensor<128xf32>) -> tensor<*xf32>
    %42 = "onnx.Add"(%41, %34) {onnx_node_name = "Add_22"} : (tensor<*xf32>, tensor<*xf32>) -> tensor<*xf32>
    %43 = "onnx.Relu"(%42) {onnx_node_name = "Relu_23"} : (tensor<*xf32>) -> tensor<*xf32>
    %44 = "onnx.Constant"() {value = opaque<"elided_large_const", "0xDEADBEEF"> : tensor<256x128x3x3xf32>} : () -> tensor<256x128x3x3xf32>
    %45 = "onnx.Constant"() {value = opaque<"elided_large_const", "0xDEADBEEF"> : tensor<256xf32>} : () -> tensor<256xf32>
    %46 = "onnx.Conv"(%43, %44, %45) {dilations = [1, 1], group = 1 : si64, kernel_shape = [3, 3], onnx_node_name = "Conv_24", pads = [1, 1, 1, 1], strides = [2, 2]} : (tensor<*xf32>, tensor<256x128x3x3xf32>, tensor<256xf32>) -> tensor<*xf32>
    %47 = "onnx.Relu"(%46) {onnx_node_name = "Relu_25"} : (tensor<*xf32>) -> tensor<*xf32>
    %48 = "onnx.Constant"() {value = opaque<"elided_large_const", "0xDEADBEEF"> : tensor<256x256x3x3xf32>} : () -> tensor<256x256x3x3xf32>
    %49 = "onnx.Constant"() {value = opaque<"elided_large_const", "0xDEADBEEF"> : tensor<256xf32>} : () -> tensor<256xf32>
    %50 = "onnx.Conv"(%47, %48, %49) {dilations = [1, 1], group = 1 : si64, kernel_shape = [3, 3], onnx_node_name = "Conv_26", pads = [1, 1, 1, 1], strides = [1, 1]} : (tensor<*xf32>, tensor<256x256x3x3xf32>, tensor<256xf32>) -> tensor<*xf32>
    %51 = "onnx.Constant"() {value = opaque<"elided_large_const", "0xDEADBEEF"> : tensor<256x128x1x1xf32>} : () -> tensor<256x128x1x1xf32>
    %52 = "onnx.Constant"() {value = opaque<"elided_large_const", "0xDEADBEEF"> : tensor<256xf32>} : () -> tensor<256xf32>
    %53 = "onnx.Conv"(%43, %51, %52) {dilations = [1, 1], group = 1 : si64, kernel_shape = [1, 1], onnx_node_name = "Conv_27", pads = [0, 0, 0, 0], strides = [2, 2]} : (tensor<*xf32>, tensor<256x128x1x1xf32>, tensor<256xf32>) -> tensor<*xf32>
    %54 = "onnx.Add"(%50, %53) {onnx_node_name = "Add_28"} : (tensor<*xf32>, tensor<*xf32>) -> tensor<*xf32>
    %55 = "onnx.Relu"(%54) {onnx_node_name = "Relu_29"} : (tensor<*xf32>) -> tensor<*xf32>
    %56 = "onnx.Constant"() {value = opaque<"elided_large_const", "0xDEADBEEF"> : tensor<256x256x3x3xf32>} : () -> tensor<256x256x3x3xf32>
    %57 = "onnx.Constant"() {value = opaque<"elided_large_const", "0xDEADBEEF"> : tensor<256xf32>} : () -> tensor<256xf32>
    %58 = "onnx.Conv"(%55, %56, %57) {dilations = [1, 1], group = 1 : si64, kernel_shape = [3, 3], onnx_node_name = "Conv_30", pads = [1, 1, 1, 1], strides = [1, 1]} : (tensor<*xf32>, tensor<256x256x3x3xf32>, tensor<256xf32>) -> tensor<*xf32>
    %59 = "onnx.Relu"(%58) {onnx_node_name = "Relu_31"} : (tensor<*xf32>) -> tensor<*xf32>
    %60 = "onnx.Constant"() {value = opaque<"elided_large_const", "0xDEADBEEF"> : tensor<256x256x3x3xf32>} : () -> tensor<256x256x3x3xf32>
    %61 = "onnx.Constant"() {value = opaque<"elided_large_const", "0xDEADBEEF"> : tensor<256xf32>} : () -> tensor<256xf32>
    %62 = "onnx.Conv"(%59, %60, %61) {dilations = [1, 1], group = 1 : si64, kernel_shape = [3, 3], onnx_node_name = "Conv_32", pads = [1, 1, 1, 1], strides = [1, 1]} : (tensor<*xf32>, tensor<256x256x3x3xf32>, tensor<256xf32>) -> tensor<*xf32>
    %63 = "onnx.Add"(%62, %55) {onnx_node_name = "Add_33"} : (tensor<*xf32>, tensor<*xf32>) -> tensor<*xf32>
    %64 = "onnx.Relu"(%63) {onnx_node_name = "Relu_34"} : (tensor<*xf32>) -> tensor<*xf32>
    %65 = "onnx.Constant"() {value = opaque<"elided_large_const", "0xDEADBEEF"> : tensor<512x256x3x3xf32>} : () -> tensor<512x256x3x3xf32>
    %66 = "onnx.Constant"() {value = opaque<"elided_large_const", "0xDEADBEEF"> : tensor<512xf32>} : () -> tensor<512xf32>
    %67 = "onnx.Conv"(%64, %65, %66) {dilations = [1, 1], group = 1 : si64, kernel_shape = [3, 3], onnx_node_name = "Conv_35", pads = [1, 1, 1, 1], strides = [2, 2]} : (tensor<*xf32>, tensor<512x256x3x3xf32>, tensor<512xf32>) -> tensor<*xf32>
    %68 = "onnx.Relu"(%67) {onnx_node_name = "Relu_36"} : (tensor<*xf32>) -> tensor<*xf32>
    %69 = "onnx.Constant"() {value = opaque<"elided_large_const", "0xDEADBEEF"> : tensor<512x512x3x3xf32>} : () -> tensor<512x512x3x3xf32>
    %70 = "onnx.Constant"() {value = opaque<"elided_large_const", "0xDEADBEEF"> : tensor<512xf32>} : () -> tensor<512xf32>
    %71 = "onnx.Conv"(%68, %69, %70) {dilations = [1, 1], group = 1 : si64, kernel_shape = [3, 3], onnx_node_name = "Conv_37", pads = [1, 1, 1, 1], strides = [1, 1]} : (tensor<*xf32>, tensor<512x512x3x3xf32>, tensor<512xf32>) -> tensor<*xf32>
    %72 = "onnx.Constant"() {value = opaque<"elided_large_const", "0xDEADBEEF"> : tensor<512x256x1x1xf32>} : () -> tensor<512x256x1x1xf32>
    %73 = "onnx.Constant"() {value = opaque<"elided_large_const", "0xDEADBEEF"> : tensor<512xf32>} : () -> tensor<512xf32>
    %74 = "onnx.Conv"(%64, %72, %73) {dilations = [1, 1], group = 1 : si64, kernel_shape = [1, 1], onnx_node_name = "Conv_38", pads = [0, 0, 0, 0], strides = [2, 2]} : (tensor<*xf32>, tensor<512x256x1x1xf32>, tensor<512xf32>) -> tensor<*xf32>
    %75 = "onnx.Add"(%71, %74) {onnx_node_name = "Add_39"} : (tensor<*xf32>, tensor<*xf32>) -> tensor<*xf32>
    %76 = "onnx.Relu"(%75) {onnx_node_name = "Relu_40"} : (tensor<*xf32>) -> tensor<*xf32>
    %77 = "onnx.Constant"() {value = opaque<"elided_large_const", "0xDEADBEEF"> : tensor<512x512x3x3xf32>} : () -> tensor<512x512x3x3xf32>
    %78 = "onnx.Constant"() {value = opaque<"elided_large_const", "0xDEADBEEF"> : tensor<512xf32>} : () -> tensor<512xf32>
    %79 = "onnx.Conv"(%76, %77, %78) {dilations = [1, 1], group = 1 : si64, kernel_shape = [3, 3], onnx_node_name = "Conv_41", pads = [1, 1, 1, 1], strides = [1, 1]} : (tensor<*xf32>, tensor<512x512x3x3xf32>, tensor<512xf32>) -> tensor<*xf32>
    %80 = "onnx.Relu"(%79) {onnx_node_name = "Relu_42"} : (tensor<*xf32>) -> tensor<*xf32>
    %81 = "onnx.Constant"() {value = opaque<"elided_large_const", "0xDEADBEEF"> : tensor<512x512x3x3xf32>} : () -> tensor<512x512x3x3xf32>
    %82 = "onnx.Constant"() {value = opaque<"elided_large_const", "0xDEADBEEF"> : tensor<512xf32>} : () -> tensor<512xf32>
    %83 = "onnx.Conv"(%80, %81, %82) {dilations = [1, 1], group = 1 : si64, kernel_shape = [3, 3], onnx_node_name = "Conv_43", pads = [1, 1, 1, 1], strides = [1, 1]} : (tensor<*xf32>, tensor<512x512x3x3xf32>, tensor<512xf32>) -> tensor<*xf32>
    %84 = "onnx.Add"(%83, %76) {onnx_node_name = "Add_44"} : (tensor<*xf32>, tensor<*xf32>) -> tensor<*xf32>
    %85 = "onnx.Relu"(%84) {onnx_node_name = "Relu_45"} : (tensor<*xf32>) -> tensor<*xf32>
    %86 = "onnx.GlobalAveragePool"(%85) {onnx_node_name = "GlobalAveragePool_46"} : (tensor<*xf32>) -> tensor<*xf32>
    %87 = "onnx.Flatten"(%86) {axis = 1 : si64, onnx_node_name = "Flatten_47"} : (tensor<*xf32>) -> tensor<*xf32>
    %88 = "onnx.Constant"() {value = opaque<"elided_large_const", "0xDEADBEEF"> : tensor<1000x512xf32>} : () -> tensor<1000x512xf32>
    %89 = "onnx.Constant"() {value = opaque<"elided_large_const", "0xDEADBEEF"> : tensor<1000xf32>} : () -> tensor<1000xf32>
    %90 = "onnx.Gemm"(%87, %88, %89) {alpha = 1.000000e+00 : f32, beta = 1.000000e+00 : f32, onnx_node_name = "Gemm_48", transB = 1 : si64} : (tensor<*xf32>, tensor<1000x512xf32>, tensor<1000xf32>) -> tensor<1x1000xf32>
    return %90 : tensor<1x1000xf32>
  }
  "onnx.EntryPoint"() {func = @main_graph} : () -> ()
}
